SWE_Project-master/best_model.pth (torch, 339945 bytes, 13 tensors)

lstm.weight_ih_l0 f4 [256, 3]
-0.03582485 0.0058706524 -0.008279367 0.067034505 0.10599307 -0.028500095 -0.06286671 0.06282633
-0.020551879 0.011147476 -0.06314485 -0.025513845 0.07333601 0.0009929644 -0.09342633 -0.0901613
0.03477255 0.0039675976 -0.082015134 -0.050593864 -0.056962483 -0.0045637963 0.13700473 0.10779219
0.09200479 0.06312164 0.12599689 -0.007423543 -0.037781592 0.14829774 -0.019809177 -0.056635626
0.04008604 0.14268976 0.049073678 0.122619644 0.09315659 -0.00094196654 0.09708253 -0.14731175
0.0772245 0.09510641 -0.10385191 0.04381647 0.032803055 0.06428085 -0.061657157 -0.025500294
0.061459262 0.057312172 -0.013061323 -0.11631313 0.015228429 -0.07369199 0.09301061 -0.12472526
-0.07752912 0.040211745 -0.14279684 -0.14720042 0.091838524 -0.006639831 -0.055411965 -0.12276639
-0.060380127 0.044444326 0.13452834 -0.04425743 0.15144238 0.035097055 -0.00084035884 -0.092804074
-0.09311663 0.09041629 0.026967783 0.085139945 -0.107437156 0.12477363 0.15197423 -0.020765165
0.009104858 -0.05194155 -0.044071507 -0.016057992 -0.12835895 0.05370446 0.008407402 0.088225044
-0.13942307 -0.0024677406 -0.040280048 0.052226767 0.11493608 -0.07163066 0.0030989624 0.07318763
0.063535705 0.025231985 0.05684098 -0.06218803 -0.04379943 -0.046220154 0.0016137167 -0.045739725
0.07277521 0.06411759 0.11884958 -0.09176807 0.03311698 0.04611261 0.049621027 0.05635716
-0.08662676 0.048400577 -0.0077437838 -0.032428727 -0.0931271 -0.110624634 -0.069487266 -0.08310961
0.026530687 -0.08803392 -0.09605797 -0.08308076 0.06914849 0.03942333 -0.13479298 -0.107425325
-0.115058616 -0.10084325 -0.12904993 -0.024507212 0.011640631 -0.09232062 -0.0028894597 0.0015904667
-0.118591495 -0.122882724 -0.12242903 -0.12167582 -0.12081861 -0.12726401 0.099118724 -0.12322943
0.06280206 0.032140214 0.08216715 0.084320456 0.07902745 0.08680606 -0.091432236 -0.00089205784
-0.053893786 0.100832455 -0.076936275 -0.0013501263 -0.010550123 -0.06351911 0.055719845 -0.10081
0.0629705 0.02302682 -0.014530204 -0.07806565 0.06378642 0.021577071 -0.09295996 0.09428728
0.02674767 0.07418839 0.06077755 0.033104718 0.1292344 -0.067199335 -0.11891793 -0.13755144
-0.02637052 -0.058665276 -0.059632227 0.04093891 0.084254675 0.04785278 -0.10667043 0.036105767
-0.032557227 0.064288475 0.08167729 -0.032768656 -0.048637897 -0.07371925 -0.1309991 0.0005724096
0.12637989 0.14656052 0.029631644 0.159386 0.12691686 0.03501505 0.07049765 -0.12284919
0.032069072 0.01238831 -0.05222524 -0.033280496 -0.110999994 0.11197174 -0.11834592 -0.07155551
-0.052673556 -0.13726906 -0.10529365 -0.0039835363 0.09930712 0.07393966 -0.04054543 0.09580198
0.08811041 0.14523125 0.009085329 0.17918852 -0.046770066 0.13671298 0.027804432 0.06418838
-0.048051428 0.11984441 0.12617955 0.13707265 -0.07122605 0.11085948 -0.035352755 0.07663557
-0.0016881847 0.026393378 -0.13402653 -0.11224271 0.05375971 -0.059991278 0.07618326 -0.008774363
0.07053598 0.0937983 0.015161598 0.06253719 0.09835727 -0.10108522 -0.034634307 -0.03366341
0.06800384 0.009087158 -0.049754705 -0.016068637 -0.0022729598 0.09677483 -0.04105008 0.08317547
00000000: 14bd 12bd 9a5e c03b 2fa6 07bc 6349 893d
00000010: e512 d93d 0879 e9bc 43c0 80bd 17ab 803d
00000020: 6a5c a8bc e7a3 363c 1652 81bd 6902 d1bc
00000030: 3131 963d 5b26 823a 4e56 bfbd 7da6 b8bd
00000040: a96d 0e3d 9f02 823b 8df7 a7bd 833b 4fbd
00000050: 7e51 69bd e68b 95bb f84a 0c3e 27c2 dc3d
00000060: 026d bc3d eb45 813d 5405 013e 3141 f3bb
00000070: dfc0 1abd 5ddb 173e db46 a2bc c2fa 67bd
00000080: 4231 243d 441d 123e 7b01 493d 0220 fb3d
00000090: e2c8 be3d 4eee 76ba 35d3 c63d e4d8 16be
000000a0: e127 9e3d 26c7 c23d 4fb0 d4bd e678 333d
000000b0: 7f5c 063d aea5 833d 378c 7cbd fee5 d0bc
000000c0: b5bc 7b3d 2bc0 6a3d 29ff 55bc 9435 eebd
000000d0: a980 793c d3eb 96bd 597c be3d f56f ffbd
000000e0: 96c7 9ebd 12b5 243d 5639 12be b5bb 16be
000000f0: d615 bc3d f092 d9bb a8f7 62bd f26c fbbd
00000100: 2751 77bd 410b 363d ccc1 093e 4747 35bd
00000110: b613 1b3e eec1 0f3d 874b 5cba 1010 bebd
00000120: efb3 bebd 2d2c b93d 8aeb dc3c da5d ae3d
00000130: 0308 dcbd 5189 ff3d 229f 1b3e b51b aabc
00000140: 8b2c 153c aac0 54bd 5384 34bd 0d8c 83bc
00000150: 8770 03be 35f9 5b3d 33bf 093c 55af b43d
00000160: ecc4 0ebe d1b9 21bb b1fc 24bd bceb 553d
00000170: 9c63 eb3d 18b3 92bd f617 4b3b 65e3 953d
00000180: 021f 823d 4fb3 ce3c 16d2 683d e0b8 7ebd
00000190: 0867 33bd 5851 3dbd 5983 d33a 9459 3bbd
000001a0: 2b0b 953d 1550 833d 6967 f33d e6f0 bbbd
000001b0: aca5 073d 93e0 3c3d 6b3f 4b3d c4d6 663d
000001c0: 5f69 b1bd af3f 463d 91bf fdbb fcd3 04bd
000001d0: 6cb9 bebd 2b8f e2bd 574f 8ebd 5f35 aabd
000001e0: e256 d93c 214b b4bd 0aba c4bd 3f26 aabd
000001f0: b99d 8d3d 5c7a 213d 2c07 0abe cf01 dcbd
00000200: daa3 ebbd e886 cebd aa25 04be 59c3 c8bc
00000210: 58b8 3e3c 9812 bdbd 175d 3dbb 3577 d03a
00000220: 19e0 f2bd f0a9 fbbd 12bc fabd 2c31 f9bd
00000230: bf6f f7bd 7f51 02be c2fe ca3d b65f fcbd
00000240: 5e9e 803d 75a5 033d 4047 a83d 34b0 ac3d
00000250: 25d9 a13d 60c7 b13d d340 bbbd fdd8 69ba
00000260: bbbf 5cbd 3f81 ce3d c490 9dbd b9f6 b0ba
00000270: 6cda 2cbc 4f16 82bd 7e3a 643d 7975 cebd
00000280: adf6 803d bea2 bc3c 1810 6ebc e2e0 9fbd
00000290: 74a2 823d 66c2 b03c cb61 bebd b119 c13d
000002a0: ee1d db3c 15f0 973d e1f1 783d d098 073d
000002b0: 0656 043e ce9f 89bd 3e8b f3bd 49da 0cbe
000002c0: fd06 d8bc 004b 70bd ec40 74bd 8faf 273d
000002d0: b78d ac3d 4701 443d 0776 dabd a4e3 133d
000002e0: ba5a 05bd ada9 833d 6c46 a73d 6d38 06bd
000002f0: 8838 47bd 1efa 96bd a124 06be c20d 163a
00000300: bb69 013e f613 163e 10be f23c 1536 233e
00000310: 7ef6 013e f16b 0f3d 1261 903d 5b98 fbbd
00000320: dc5a 033d 57f8 4a3c 22ea 55bd 2151 08bd
00000330: f753 e3bd 7151 e53d 595f f2bd b28b 92bd
00000340: 3ac0 57bd 4390 0cbe 32a4 d7bd 5388 82bb
00000350: 8861 cb3d ad6d 973d f712 26bd d433 c43d
00000360: 3b73 b43d 80b7 143e a2da 143c 327d 373e
00000370: f891 3fbd 7dfe 0b3e 1fc6 e33c 3375 833d
00000380: 93d1 44bd fc70 f53d 3635 013e c65c 0c3e
00000390: f7de 91bd 4c0a e33d 0dce 10bd 1cf3 9c3d
000003a0: 1446 ddba ed36 d83c 403e 09be 82df e5bd
000003b0: 2433 5c3d 6ab9 75bd f805 9c3d 59c2 0fbc
000003c0: 2b75 903d 5319 c03d 5a68 783c 8013 803d
000003d0: 896f c93d c505 cfbd b4dc 0dbd a5e2 09bd
000003e0: 9945 8b3d 4ee2 143c 97cb 4bbd 60a2 83bc
000003f0: f0f5 14bb e231 c63d 2124 28bd e757 aa3d

lstm.weight_hh_l0 f4 [256, 64]
-0.10493532 0.009198537 -0.004406929 0.026271509 0.035431862 0.13923799 0.08872628 0.04688481
-0.0059437025 0.1387231 0.02440966 0.0076055923 0.022232288 -0.023789039 0.1461823 0.14818421
-0.0208571 -0.046951283 -0.11301553 -0.020760978 -0.016641065 0.055982642 -0.11624288 0.1585223
-0.13345046 0.16922408 0.15065977 -0.07054771 0.062842384 0.14578594 -0.15793292 -0.06149358
-0.021974435 0.1402042 -0.035997584 -0.059602052 0.042066425 0.037349414 -0.13908641 0.15855484
0.051811535 -0.0383624 0.0125948815 -0.023762176 -0.033412505 0.0016817638 -0.091133535 -0.056202233
0.024332505 -0.1329661 0.0820401 -0.039039318 0.028718406 -0.11784444 0.024380326 0.045722414
0.029389268 0.15677209 -0.1576117 0.019938815 -0.021630073 0.08387636 -0.012453587 0.0336038
0.021061674 0.056981664 0.03449313 -0.102133326 0.041230842 0.035878602 0.055759188 0.14739846
-0.010356279 -0.07570515 -0.055439603 0.0067059994 0.09612624 -0.10241311 0.06842124 -0.02286798
-0.05551523 -0.04477291 0.10728829 0.026000846 -0.072022706 -0.060085233 -0.10455228 -0.07713431
-0.034479123 0.128015 0.14021325 0.14301476 0.010973461 -0.09485305 -0.07838193 0.033397585
0.0051127174 0.06468407 0.033595953 -0.08817958 -0.09207274 0.08723887 0.018138906 0.06912128
0.02951732 0.07389102 -0.0699023 0.10617652 0.107993826 -0.10267331 -0.08165115 0.012544333
-0.07977089 -0.022005761 -0.14606744 0.08355552 0.03138628 -0.017097725 0.021766828 0.025872717
0.058163602 0.12678316 0.048562307 0.104762174 0.021178698 -0.030641885 0.13626908 0.095442995
-0.09972467 -0.057540767 0.10573111 0.089633025 -0.0500415 -0.09230333 -0.09713667 -0.09105606
0.0306245 -0.04896769 0.06097176 -0.11449074 0.08778727 0.04318401 0.06320308 0.029834187
-0.09234134 -0.07411156 0.10865026 0.069409296 -0.007226876 -0.10438721 -0.11543974 0.029292816
-0.037634898 -0.050148774 0.028467087 -0.01419887 0.081308216 0.08095688 0.013468533 0.07039062
0.05672804 0.114235476 -0.0378844 -0.08473277 0.0145251695 0.06875379 -0.06500609 -0.053368345
0.013555849 0.045423158 -0.08026436 -0.062111042 0.07028837 -0.04011697 0.0075185145 -0.13445237
0.085611984 0.057568405 0.026027614 0.018193668 0.028249606 0.11771554 0.081192486 0.0675062
-0.006845558 0.00051527837 0.034489922 -0.10780049 -0.07179356 0.14703493 0.010188868 0.03708419
0.08900399 0.12526768 -0.10048113 -0.10412666 0.13434182 -0.029524066 -0.12509023 -0.06683643
0.00088500493 -0.1408103 0.07851592 -0.0137593895 -0.07031778 0.0127670085 -0.13547474 -0.121430196
0.035947993 0.0003010635 -0.03114545 0.049367793 0.111809954 -0.020497736 0.13109575 0.024453169
0.011201203 -0.12830514 -0.16051377 -0.04391115 0.017107593 -0.09941579 0.13422154 0.068907484
-0.14252287 0.027107976 -0.05291256 -0.15443335 -0.090180844 -0.09505447 -0.05054236 -0.041628905
-0.076084614 -0.08513006 0.036199313 -0.11762299 0.06233485 -0.07089135 -0.038232528 -0.15111661
-0.07296287 0.14829887 0.0027441913 -0.057329215 -0.11863819 0.0070609017 -0.08631199 -0.061898436
-0.06521679 0.049462438 0.09027348 -0.0887255 0.08754063 -0.10753369 -0.06897517 -0.09592742
00000000: 54e8 d6bd 76b5 163c 0068 90bb 5937 d73c
00000010: 0021 113d 6794 0e3e 20b6 b53d 490a 403d
00000020: 64c3 c2bb 6e0d 0e3e c4f6 c73c 5538 f93b
00000030: 7d20 b63c 3be1 c2bc d0b0 153e 9abd 173e
00000040: 82dc aabc fd4f 40bd b074 e7bd ed12 aabc
00000050: d852 88bc 0e4e 653d bf10 eebd ab53 223e
00000060: 3da7 08be 1449 2d3e 8e46 1a3e 517b 90bd
00000070: 82b3 803d e948 153e 2bb9 21be b1e0 7bbd
00000080: bb03 b4bc b191 0f3e 3472 13bd 4821 74bd
00000090: d84d 2c3d b3fb 183d ab6c 0ebe 335c 223e
000000a0: 5538 543d e421 1dbd c35a 4e3c e5a8 c2bc
000000b0: 8ddb 08bd a16e dc3a 38a4 babd 5034 66bd
000000c0: f654 c73c 4428 08be a404 a83d b1e7 1fbd
000000d0: dd42 eb3c 6d58 f1bd 40b9 c73c 6d47 3b3d
000000e0: c3c1 f03c dd88 203e f664 21be ba56 a33c
000000f0: 8d31 b1bc 5ec7 ab3d 210a 4cbc 23a4 093d
00000100: 8889 ac3c 9b65 693d ab48 0d3d 472b d1bd
00000110: ace1 283d 71f5 123d bf63 643d 9fef 163e
00000120: 62ad 29bc 4d0b 9bbd a314 63bd 00be db3b
00000130: d6dd c43d f7bd d1bd 6f20 8c3d a155 bbbc
00000140: f063 63bd cd63 37bd f7b9 db3d baff d43c
00000150: a480 93bd ef1b 76bd 811f d6bd 98f8 9dbd
00000160: fb39 0dbd 5d16 033e 1094 0f3e 7672 123e
00000170: 08ca 333c 5142 c2bd b586 a0bd e8cb 083d
00000180: 9588 a73b 1579 843d e99b 093d 7f97 b4bd
00000190: a290 bcbd 4baa b23d 0b98 943c 758f 8d3d
000001a0: 4fce f13c 2d54 973d f028 8fbd 1373 d93d
000001b0: de2b dd3d 6246 d2bd b838 a7bd bf86 4d3c
000001c0: ec5e a3bd 6d45 b4bc b492 15be 281f ab3d
000001d0: e68e 003d 8710 8cbc 5950 b23c 05f3 d33c
000001e0: f53c 6e3d 72d3 013e 45e9 463d 8d8d d63d
000001f0: f37e ad3c b104 fbbc 1f8a 0b3e 9e77 c33d
00000200: 733c ccbd deaf 6bbd 8d89 d83d 8591 b73d
00000210: 51f8 4cbd 8709 bdbd 97ef c6bd 997b babd
00000220: 3be0 fa3c 5892 48bd 86bd 793d 1f7a eabd
00000230: d0c9 b33d b7e1 303d 9e70 813d d366 f43c
00000240: 751d bdbd cdc7 97bd 0784 de3d 7626 8e3d
00000250: 6ecf ecbb f6c8 d5bd ac6b ecbd 7df7 ef3c
00000260: 0d27 1abd cd68 4dbd cf33 e93c 61a2 68bc
00000270: ec84 a63d b8cc a53d 1fab 5c3c f528 903d
00000280: a95b 683d 4af4 e93d ac2c 1bbd 6088 adbd
00000290: fafa 6d3c c9ce 8c3d ea21 85bd c498 5abd
000002a0: 5a19 5e3c a20d 3a3d a461 a4bd 2668 7ebd
000002b0: 59f3 8f3d b151 24bd df5d f63b e2ad 09be
000002c0: 5655 af3d d9cc 6b3d dd37 d53c e30a 953c
000002d0: b86b e73c d814 f13d 3f48 a63d b140 8a3d
000002e0: b450 e0bb bf13 073a 4e45 0d3d 81c6 dcbd
000002f0: 8108 93bd 5390 163e 36ef 263c 97e5 173d
00000300: b947 b63d 2c46 003e 0dc9 cdbd 5c40 d5bd
00000310: e790 093e 74dc f1bc a717 00be 8ae1 88bd
00000320: adff 673a 9330 10be f4cc a03d 106f 61bc
00000330: c502 90bd b72c 513c e4b9 0abe 65b0 f8bd
00000340: 343e 133d 0fd8 9d39 be24 ffbc e235 4a3d
00000350: 9efc e43d deea a7bc f73d 063e 0352 c83c
00000360: 4085 373c 6c62 03be b95d 24be 2edc 33bd
00000370: 3925 8c3c 819a cbbd 5f71 093e 5e1f 8d3d
00000380: 84f1 11be 8c11 de3c d7ba 58bd c723 1ebe
00000390: bcb0 b8bd ebab c2bd 8105 4fbd 1283 2abd
000003a0: 40d2 9bbd ab58 aebd bb45 143d 52e4 f0bd
000003b0: d452 7f3d 7c2f 91bd b699 1cbd 50be 1abe
000003c0: 8f6d 95bd a9db 173e e4d7 333b 0ad2 6abd
000003d0: 94f8 f2bd 235f e73b 57c4 b0bd 3789 7dbd
000003e0: 6190 85bd 2099 4a3d 4de1 b83d b7b5 b5bd
000003f0: 8048 b33d a03a dcbd db42 8dbd 9875 c4bd

lstm.bias_ih_l0 f4 [256]
-0.06652458 0.059798673 -0.031248555 -0.03880717 0.1459101 0.08933847 -0.0605194 -0.071521096
-0.0073529007 0.07114807 -0.06342156 0.0036092566 -0.07613509 0.011812956 0.01838925 0.11125169
-0.07973104 0.038926084 -0.023992 -0.082167275 -0.01688435 -0.013025918 0.020311851 -0.030172803
0.07649674 -0.060484383 -0.09192887 0.005257847 -0.04086649 0.08696659 0.022004925 -0.06315678
0.108676314 -0.023252876 0.10322877 0.09306485 0.12748209 -0.035960153 0.05033933 0.020564543
-0.060925536 -0.057142977 -0.028921628 0.13892585 -0.0033563178 -0.0883445 -0.13039537 0.021674123
0.11199897 0.07503106 -0.08447132 0.07104219 -0.07047431 -0.07237182 0.07377873 0.057992358
-0.111914754 0.020242434 0.048385948 -0.04169539 -0.09677088 0.112359494 0.0221084 0.09867605
-0.061755423 0.10441843 0.04715442 0.035732143 -0.08200296 0.025452299 0.08918063 0.12864287
0.0108873155 -0.06776209 -0.09668974 -0.041151647 -0.039852586 0.082891025 0.013599517 0.11822202
0.13263382 0.033709455 0.095846035 0.06804149 -0.10951479 -0.066487916 0.1115827 -0.075158484
-0.050511055 -0.052850056 -0.031480312 0.0915268 0.09204446 -0.09332662 0.044841956 0.060264263
0.029662276 0.0062070964 0.0436055 0.09879149 0.007997437 0.11571456 -0.058016453 0.11481255
-0.12961005 0.04122915 -0.060029633 -0.076884255 -0.060063045 -0.09102942 -0.031786397 0.031051448
-0.069132246 -0.043862186 -0.0135762235 -0.10260997 -0.10318045 -0.054871097 0.07899276 -0.021822842
-0.055410698 -0.03806641 -0.061156616 0.08166115 -0.09027331 0.06676683 -0.061182946 0.067511946
-0.06437959 -0.01961784 -0.022732278 0.027982814 -0.03412369 -0.0560632 -0.041460954 0.12148864
-0.097924374 0.075837545 -0.02621624 0.04762458 -0.08698228 0.09813562 -0.04767576 -0.08893855
-0.06322295 -0.11279417 0.10425099 0.08454428 -0.09651945 -0.10651117 -0.083785646 -0.09393116
0.0062717786 -0.08111942 0.110951 0.04149114 0.03172003 0.059982464 0.009419333 -0.10672405
-0.065352425 -0.020317852 -0.07472485 0.07605871 0.1239039 0.04679452 -0.013676022 -0.08321538
-0.0829901 -0.07609589 -0.0045490763 0.047731735 0.03038795 -0.0878189 -0.03242216 0.059481964
0.06548289 -0.017945927 -0.015673062 0.0012454165 0.09838819 0.11428058 0.09064878 -0.09257111
0.023435906 0.02609624 0.071429685 0.038445164 0.084120706 -0.06695968 -0.06023879 -0.10010128
0.12311727 0.14805599 0.0017442005 0.031970773 0.011392893 0.10472833 -0.048782483 0.003885853
0.11392241 0.05959966 -0.07217268 0.07254316 -0.09814159 -0.09366375 -0.05083752 0.023807652
0.07270077 0.097494885 0.02529186 -0.065499865 0.05176287 0.09052681 -0.011080328 -0.12839004
0.13944507 0.007248257 -0.022287488 0.07774397 -0.079582304 0.13926601 0.047295883 -0.0093932655
-0.025920186 0.030302098 0.015946422 -0.02229602 0.12194371 -0.089654215 0.044487394 0.08519948
-0.019245712 -0.06781045 -0.010103202 0.10519767 0.12883352 -0.04178452 -0.025503043 0.015711175
-0.08959503 0.023800895 -0.11286785 0.05265772 -0.065879695 -0.02133757 0.051620603 0.053743158
0.108483344 0.048276402 0.110452354 -0.04217267 -0.015628872 0.107073314 0.06378545 0.082099564
00000000: 0a3e 88bd 74ef 743d f8fc ffbc 44f4 1ebd
00000010: 7569 153e 16f7 b63d 31e3 77bd a779 92bd
00000020: 9af0 f0bb 14b6 913d 2ae3 81bd 4789 6c3b
00000030: b7ec 9bbd 218b 413c 0da5 963c edd7 e33d
00000040: 074a a3bd f570 1f3d df8a c4bc 5147 a8bd
00000050: 0c51 8abc a96a 55bc 0a65 a63c f42c f7bc
00000060: 53aa 9c3d 79be 77bd 3445 bcbd 044a ac3b
00000070: 9f63 27bd 8a1b b23d ac43 b43c 5858 81bd
00000080: b091 de3d d17c bebc 9b69 d33d c998 be3d
00000090: aa8a 023e f44a 13bd 9d30 4e3d f976 a83c
000000a0: 0e8d 79bd c10e 6abd 0ded ecbc 9442 0e3e
000000b0: abf5 5bbb f6ed b4bd 5d86 05be ee8d b13c
000000c0: b75f e53d e2a9 993d 4dff acbd 917e 913d
000000d0: d654 90bd ad37 94bd 4e19 973d 6589 6d3d
000000e0: 9033 e5bd 76d3 a53c 5830 463d c9c8 2abd
000000f0: d02f c6bd bc1c e63d ad1c b53c ab16 ca3d
00000100: 41f3 7cbd 54d9 d53d fe24 413d de5b 123d
00000110: 2bf1 a7bd 5781 d03c 56a4 b63d f5ba 033e
00000120: b660 323c dac6 8abd 4505 c6bd a18e 28bd
00000130: 773c 23bd c5c2 a93d 82d0 5e3c 631e f23d
00000140: 29d1 073e ed12 0a3d ed4a c43d 5659 8b3d
00000150: 4a49 e0bd d12a 88bd 7885 e43d b1ec 99bd
00000160: aee4 4ebd 4d79 58bd 80f1 00bd 6772 bb3d
00000170: ce81 bc3d 0722 bfbd 33ac 373d a9d7 763d
00000180: 4dfe f23c e664 cb3b ae9b 323d 3153 ca3d
00000190: af07 033c c1fb ec3d a9a2 6dbd d822 eb3d
000001a0: 7fb8 04be e6df 283d a2e1 75bd 7e75 9dbd
000001b0: ab04 76bd a26d babd 7432 02bd 9b5f fe3c
000001c0: 3595 8dbd d6a8 33bd cf6e 5ebc 2d25 d2bd
000001d0: 4650 d3bd 84c0 60bd f5c6 a13d d1c5 b2bc
000001e0: 54f6 62bd 86eb 1bbd 5c7f 7abd f63d a73d
000001f0: 37e1 b8bd 0cbd 883d f89a 7abd b443 8a3d
00000200: 72d9 83bd 98b5 a0bc 0b39 babc 373c e53c
00000210: 48c5 0bbd 87a2 65bd f6d2 29bd 09cf f83d
00000220: 938c c8bd b750 9b3d 71c3 d6bc fe11 433d
00000230: c423 b2bd 54fb c83d a847 43bd 6a25 b6bd
00000240: 097b 81bd a100 e7bd 8b81 d53d 8d25 ad3d
00000250: fdab c5bd 8722 dabd cf97 abbd fb5e c0bd
00000260: 7e83 cd3b f021 a6bd 473a e33d 9df2 293d
00000270: ddec 013d 2cb0 753d 8c53 1a3c 2492 dabd
00000280: 7ed7 85bd a071 a6bc 5809 99bd abc4 9b3d
00000290: 54c1 fd3d 9cab 3f3d 6511 60bc d36c aabd
000002a0: b7f6 a9bd 29d8 9bbd 6b10 95bb 5a82 433d
000002b0: 26f0 f83c 65da b3bd 19cd 04bd 5ca3 733d
000002c0: e51b 863d 5603 93bc cb64 80bc 3e3d a33a
000002d0: bf7f c93d f00b ea3d 11a6 b93d ec95 bdbd
000002e0: a8fc bf3c c8c7 d53c ba49 923d ad78 1d3d
000002f0: 7a47 ac3d 2822 89bd f3bc 76bd e601 cdbd
00000300: e824 fc3d fd9b 173e a89d e43a c9f3 023d
00000310: 42a9 3a3c cf7b d63d 24d0 47bd cca9 7e3b
00000320: 2750 e93d c61e 743d 45cf 93bd 8291 943d
00000330: 75fe c8bd c8d2 bfbd 013b 50bd 4408 c33c
00000340: 24e4 943d 66ab c73d e030 cf3c cb24 86bd
00000350: 4e05 543d 1f66 b93d 448a 35bc ae78 03be
00000360: b0ca 0e3e c982 ed3b 4094 b6bc 3b38 9f3d
00000370: 0cfc a2bd c09b 0e3e 54b9 413d 36e6 19bc
00000380: 9256 d4bc 1b3c f83c 12a2 823c 25a6 b6bc
00000390: a0bd f93d a19c b7bd 6a38 363d 117d ae3d
000003a0: 2fa9 9dbc 35e0 8abd e787 25bc e071 d73d
000003b0: efec 033e 3f26 2bbd c2eb d0bc b9b4 803c
000003c0: 997d b7bd 18fa c23c 4227 e7bd 9faf 573d
000003d0: efeb 86bd 21cc aebc 2070 533d c921 5c3d
000003e0: 842c de3d 7abd 453d d834 e23d 40bd 2cbd
000003f0: 1f08 80bc 4149 db3d f2a1 823d d123 a83d

lstm.bias_hh_l0 f4 [256]
0.093118384 -0.050951328 0.12540276 -0.009521921 0.003991333 0.031780716 0.05578294 -0.088969484
0.047704052 0.04175566 0.08740167 0.09443852 -0.086607315 0.049748123 0.0059951353 -0.11660164
0.09481413 -0.06571984 0.088109076 0.065805025 -0.10040988 -0.02341112 0.092595 -0.1258475
-0.04583964 -0.054547377 -0.019417057 0.12234526 0.06363901 -0.01655802 -0.08661773 0.081422485
-0.10845049 0.10339452 0.040438723 0.11308963 -0.08042634 0.016118946 -0.055099476 0.050058883
-0.119408645 -0.10963487 0.07042755 0.07382482 -0.05341506 -0.112874374 0.0538157 0.12464333
-0.10989242 0.06933893 0.05088569 0.056914974 -0.08842321 0.006973756 0.0992323 0.044467043
0.087079376 0.018567324 0.108171605 0.09389105 -0.08446285 -0.014430384 -0.047520436 -0.052377507
0.015925644 0.078163944 0.057941332 0.009742441 0.12422941 0.057907876 -0.08501318 -0.06008058
-0.024809305 -0.0006068428 0.010534279 0.00045338296 -0.038357314 0.07207628 -0.038119085 -0.043235116
0.007691419 -0.0703643 -0.114265375 -0.07635181 0.09572561 0.095033474 0.05631989 0.06159261
0.049632143 0.08910833 -0.013372054 0.12786563 -0.09793474 -0.05176131 -0.09033946 0.0063291774
0.022589846 -0.035479583 0.009409372 0.06545543 0.11926148 -0.044175487 -0.04424191 -0.10696916
0.00270269 0.024856284 -0.042156257 -0.07363731 -0.096321546 -0.061352026 0.057603344 0.048365194
0.052214663 0.04384813 0.030066013 -0.07203686 0.041240476 -0.09446386 0.10483944 -0.0636903
0.0020841518 -0.058155607 -0.06270556 0.05962743 0.08713172 0.0036159966 0.08738615 -0.011561536
-0.031083833 -0.030891592 0.036247507 -0.05987753 -0.043888327 0.020688798 -0.09622175 0.015814614
-0.007518134 0.11305269 0.021275133 0.0872602 -0.006428303 0.0026651435 0.1222748 -0.048285212
0.11939986 -0.0076304507 0.094664775 0.051531196 -0.0037774958 -0.10691012 0.05438655 0.04433632
0.048633218 0.05887583 0.02807301 -0.035362743 0.03392952 0.03750875 -0.13525666 -0.064831436
0.054539558 -0.00681189 0.001129713 0.024268333 0.11816295 -0.042849988 0.07916147 -0.055340253
-0.030817566 0.017109074 0.011869819 0.046018533 0.008110478 0.029281534 0.05609897 -0.027754763
0.034173764 -4.8047907e-05 -0.1130229 -0.09533706 -0.07251684 -0.036140636 0.049316697 0.0069184722
0.041183475 0.089805566 0.053293712 0.11594137 -0.11519562 0.04810401 0.11159128 0.03313802
-0.06064347 0.06737794 -0.11878194 0.08471543 -0.0075040306 -0.059318963 -0.0105323205 0.006030071
-0.10051282 -0.0504551 0.07757818 -0.03015312 0.098239444 -0.08817348 0.058475867 0.10330564
0.07099969 0.0832091 -0.089857735 0.05733197 -0.059449174 0.03293373 0.0014719357 0.03034408
-0.033470474 0.015884403 0.039031208 0.005125511 -0.0370756 -0.090838715 0.00085831364 -0.11777097
0.09775367 0.080164455 0.084269196 -0.0067927153 -0.056701623 -0.118325375 0.08376595 0.09189092
-0.04316938 -0.010708747 0.0048693363 0.09331213 -0.06555143 0.08470439 0.06569668 0.07566045
-0.1067834 -0.09521636 0.012389663 0.012106496 0.08892495 0.026376335 -0.01988316 0.027440444
0.07869989 -0.049709607 -0.011667435 0.06391869 -0.026670389 -0.07136849 -0.10028215 0.042211115
00000000: dab4 be3d 57b2 50bd 9569 003e d501 1cbc
00000010: bac9 823b 7f2c 023d a77c 643d a235 b6bd
00000020: 5365 433d fc07 2b3d a6ff b23d fc68 c13d
00000030: 2d5f b1bd b0c4 4b3d d772 c43b d7cc eebd
00000040: e92d c23d 2098 86bd 8872 b43d c9c4 863d
00000050: b2a3 cdbd adc8 bfbc 73a2 bd3d 2bde 00be
00000060: 59c2 3bbd 126d 5fbd 8510 9fbc 2790 fa3d
00000070: 2b55 823d afa4 87bc a364 b1bd d5c0 a63d
00000080: 4a1b debd 82c0 d33d 13a3 253d 899b e73d
00000090: 91b6 a4bd e10b 843c fdaf 61bd 8b0a 4d3d
000000a0: 858c f4bd 3f88 e0bd 523c 903d 7831 973d
000000b0: c0c9 5abd ae2a e7bd da6d 5c3d 0145 ff3d
000000c0: 470f e1bd 9201 8e3d 836d 503d ad1f 693d
000000d0: 3a17 b5bd 1b84 e43b 4e3a cb3d 1323 363d
000000e0: ac56 b23d 801a 983c 1389 dd3d f349 c03d
000000f0: dcfa acbd 6b6d 6cbc caa4 42bd cc89 56bd
00000100: 7f76 823c 6b14 a03d e453 6d3d c29e 1f3c
00000110: fd6b fe3d cf30 6d3d 641b aebd 0e17 76bd
00000120: e23c cbbc 8814 1fba f897 2c3c 08b4 ed39
00000130: 8f1c 1dbd bb9c 933d c222 1cbd 4e17 31bd
00000140: 4d08 fc3b 281b 90bd f703 eabd 565e 9cbd
00000150: ca0b c43d e9a0 c23d afaf 663d 8848 7c3d
00000160: 134b 4b3d 6e7e b63d 7616 5bbc 35ef 023e
00000170: 0292 c8bd ab03 54bd e503 b9bd fd64 cf3b
00000180: 570e b93c 0a53 11bd c429 1a3c 7f0d 863d
00000190: 5d3f f43d 5bf1 34bd 0137 35bd a612 dbbd
000001a0: 9d1f 313b 689f cb3c 0aac 2cbd 28cf 96bd
000001b0: 3b44 c5bd 434c 7bbd 7cf1 6b3d 951a 463d
000001c0: 0bdf 553d 199a 333d 004d f63c 1088 93bd
000001d0: c6eb 283d 4576 c1bd 0fb6 d63d 0f70 82bd
000001e0: 4496 083b 9334 6ebd c66b 80bd e43b 743d
000001f0: 1d72 b23d 5bfa 6c3b 83f7 b23d 996c 3dbc
00000200: 86a3 febc 5d10 fdbc 4478 143d 2442 75bd
00000210: 3fc4 33bd 8e7b a93c e90f c5bd a68d 813c
00000220: ae5a f6bb 2b88 e73d 3049 ae3c 7ab5 b23d
00000230: 84a4 d2bb b0a9 2e3b 366b fa3d b7c6 45bd
00000240: ea87 f43d dc08 fabb 9bdf c13d 6012 533d
00000250: dd8f 77bb b1f3 dabd 6ec4 5e3d 009a 353d
00000260: a033 473d c827 713d 5ef9 e53c 86d8 10bd
00000270: aef9 0a3d c6a2 193d b980 0abe 58c6 84bd
00000280: df64 5f3d 4636 dfbb e112 943a 62ce c63c
00000290: 6bff f13d 7883 2fbd 691f a23d 76ac 62bd
000002a0: 1f75 fcbc 5428 8c3c a179 423c ee7d 3c3d
000002b0: cfe1 043c d4df ef3c 09c8 653d f55d e3bc
000002c0: caf9 0b3d 0c87 49b8 8d78 e7bd 1440 c3bd
000002d0: b683 94bd 3408 14bd 4e00 4a3d 5ab4 e23b
000002e0: 01b0 283d fbeb b73d 824a 5a3d ab72 ed3d
000002f0: aeeb ebbd b608 453d f889 e43d bcbb 073d
00000300: 4a65 78bd 72fd 893d f243 f3bd 497f ad3d
00000310: 5fe4 f5bb 71f8 72bd c18f 2cbc e797 c53b
00000320: aad9 cdbd 02aa 4ebd 4fe1 9e3d ad03 f7bc
00000330: c331 c93d 4c94 b4bd 6484 6f3d e891 d33d
00000340: 4968 913d 8869 aa3d 5507 b8bd eed4 6a3d
00000350: fa80 73bd 85e5 063d f7ed c03a 2694 f83c
00000360: 5618 09bd 0220 823c 30df 1f3d e7f3 a73b
00000370: 96dc 17bd a609 babd 7400 613a e831 f1bd
00000380: 1333 c83d 432d a43d 5495 ac3d 6d95 debb
00000390: f63f 68bd 9354 f2bd 7b8d ab3d 4f31 bc3d
000003a0: 60d2 30bd be73 2fbc f48e 9f3b 6e1a bf3d
000003b0: d43f 86bd 7f79 ad3d fb8b 863d def3 9a3d
000003c0: 41b1 dabd cc00 c3bd 03fe 4a3c 535a 463c
000003d0: 491e b63d 2f13 d83c 02e2 a2bc c8ca e03c
000003e0: 682d a13d 4d9c 4bbd c528 3fbc cde7 823d
000003f0: dc7b dabc a529 92bd ba60 cdbd 90e5 2c3d

lstm.weight_ih_l1 f4 [256, 64]
-0.09253227 -0.017980207 -0.075621024 -4.4066564e-05 -0.08124371 -0.0593065 -0.001381232 -0.0009973447
-0.09178972 -0.020932209 -0.010440093 -0.06442225 0.06712193 -0.060471848 0.044392623 -0.10783043
-0.04776007 0.054885194 -0.041594245 0.120388664 0.011792814 -0.0010577277 0.019632338 -0.09312351
0.109257445 -0.0030970862 -0.039637662 -0.10118791 0.124940194 0.0933825 0.05681597 -0.07493732
-0.13835718 0.10545207 -0.06515089 0.029372225 0.0033336433 -0.009193854 -0.004940595 -0.109586105
-0.11133537 0.10506297 -0.03212841 -0.10348677 -0.10736732 0.041324988 0.031096062 -0.015706908
0.11365029 0.10881576 -0.02661809 -0.113834105 0.09710852 0.11875961 0.10749755 0.016993236
0.030504415 0.12555252 0.01713225 0.093157746 0.1387445 -0.090490915 -0.12067818 -0.097977586
-0.07577737 0.017337324 0.08625625 0.13145229 0.04686286 0.043432884 0.092202 0.118267365
0.0472598 -0.058320157 0.05346226 -0.033488743 0.02430789 0.07390014 0.07416338 0.06383632
0.1365124 -0.06244465 -0.10938913 0.008111489 0.05989051 -0.027244406 0.067166895 0.13006966
0.055625603 -0.07577152 0.036584362 0.018328298 0.06765221 -0.05792374 0.052223705 0.11011341
0.1503462 0.013959711 -0.07086772 0.08215617 -0.050075654 0.113430485 -0.106547095 0.03413688
-0.01655269 0.07549329 -0.12738638 0.037934627 -0.021628242 0.04769727 -0.00087728444 -0.009007693
0.081745744 0.027857214 -0.022528784 -0.04374265 -0.04710822 0.0068763494 0.00993858 0.0041870223
-0.12906432 -0.037601765 -0.082299866 0.01027421 0.08452324 0.101718925 -0.02857444 0.038172625
-0.061704334 0.14334147 -0.032395363 -0.11777037 0.14610559 -0.0026901902 -0.023030873 -0.14722097
0.09477644 -0.017072255 0.026328549 0.019004494 -0.14136718 -0.020002306 -0.14227635 0.10046574
-0.02004745 -0.1356872 -0.04943873 -0.0046610436 0.10103725 0.11067904 0.033247538 0.024160162
-0.066625655 -0.030697666 -0.09604575 -0.13203554 0.032158423 -0.032511376 0.052079298 0.08149245
-0.059339594 -0.010822338 -0.11306591 0.02391376 0.025284005 -0.018766087 0.12462172 -0.06968057
-0.04095755 0.14564031 0.046076808 -0.0042423764 -0.063087665 0.09551598 -0.069635995 0.023843804
-0.058958374 -0.0023254242 0.032846626 0.04375418 0.084673256 -0.07038703 -0.084987104 0.13996446
0.034957945 0.07255528 0.08554084 0.06793851 0.1354964 0.050168276 -0.05518318 0.10561598
-0.068590485 0.03789469 -0.0091812415 0.109896295 -0.009470436 -0.07089316 0.027384419 -0.014872069
-0.04050618 -0.023640448 0.075575314 -0.08165043 -0.0866324 -0.05258757 0.074731015 -0.070411265
0.022350065 -0.12141984 -0.060876083 -0.08907227 0.1150801 0.084103435 0.06175937 0.03589606
-0.11369163 -0.09017409 -0.07996131 -0.117884085 0.017625544 0.043317735 0.06920778 -0.10354084
0.1089742 -0.011019301 -0.09762678 0.05282161 -0.065193355 -0.10232087 0.08794346 -0.10782526
-0.071813755 0.08795688 -0.03165629 -0.13633901 0.07553362 -0.06996524 -0.0318249 -0.0020769092
0.09635537 0.10349411 -0.09132618 -0.109440975 0.021255719 0.06293121 0.03536 0.026440678
-0.05636891 -0.01444259 0.11708421 0.0704762 0.10893907 -0.046477906 -0.067534104 -0.06699537
00000000: 8f81 bdbd 3a4b 93bc 32df 9abd 1dd4 38b8
00000010: 1a63 a6bd 5feb 72bd 750a b5ba 56b9 82ba
00000020: 40fc bbbd 067a abbc ed0c 2bbc d0ef 83bd
00000030: 3977 893d 54b1 77bd 0ad5 353d 33d6 dcbd
00000040: 10a0 43bd 4ccf 603d ba5e 2abd 558e f63d
00000050: a636 413c 74a3 8aba ffd3 a03c 8ab7 bebd
00000060: 5ec2 df3d 7cf8 4abb 1a5b 22bd 9b3b cfbd
00000070: a5e0 ff3d 533f bf3d ddb7 683d bd78 99bd
00000080: 81ad 0dbe 41f7 d73d d46d 85bd 059e f03c
00000090: 4179 5a3b d2a1 16bc b7e4 a1bb ae6e e0bd
000000a0: cc03 e4bd 412b d73d 1499 03bd dff0 d3bd
000000b0: 66e3 dbbd 6444 293d 2bbd fe3c c6ab 80bc
000000c0: 7cc1 e83d ccda de3d 2e0e dabc db21 e9bd
000000d0: d5e0 c63d 3d38 f33d ad27 dc3d 6635 8b3c
000000e0: 65e4 f93c d790 003e ef58 8c3c 7dc9 be3d
000000f0: 0a13 0e3e 4d53 b9bd 1f26 f7bd 79a8 c8bd
00000100: 2a31 9bbd 0107 8e3c 1ea7 b03d 6e9b 063e
00000110: 45f3 3f3d aee6 313d 67d4 bc3d 2936 f23d
00000120: 7e93 413d 1ee1 6ebd 3efb 5a3d 7e2b 09bd
00000130: 5721 c73c f558 973d f8e2 973d 9ebc 823d
00000140: e8c9 0b3e f6c5 7fbd 6807 e0bd 0de6 043c
00000150: c04f 753d a92f dfbc cc8e 893d fb30 053e
00000160: acd7 633d 192e 9bbd 7cd9 153d 3a25 963c
00000170: 3e8d 8a3d 7241 6dbd 86e8 553d 2483 e13d
00000180: 5bf4 193e 46b7 643c 1823 91bd 7e41 a83d
00000190: 211c 4dbd 3e4e e83d 5d35 dabd 1dd3 0b3d
000001a0: 8299 87bc 3a9c 9a3d 9371 02be 5761 1b3d
000001b0: b62d b1bc 365e 433d 90f9 65ba 0195 13bc
000001c0: 506a a73d d034 e43c 498e b8bc 7e2b 33bd
000001d0: 8df4 40bd 0053 e13b 6dd5 223c 4a33 893b
000001e0: 7029 04be 4f04 1abd d58c a8bd 2955 283c
000001f0: 851a ad3d 0352 d03d f214 eabc e65a 1c3d
00000200: afbd 7cbd 1bc8 123e 00b1 04bd 9731 f1bd
00000210: b49c 153e e74d 30bb 3eab bcbc 18c1 16be
00000220: 261a c23d 1ddb 8bbc f8ae d73c 50af 9b3c
00000230: 8fc2 10be e0db a3bc e4b0 11be fbc0 cd3d
00000240: 8d3a a4bc 96f1 0abe 4480 4abd abbb 98bb
00000250: 9eec ce3d b1ab e23d 922e 083d 88eb c53c
00000260: 0873 88bd ac79 fbbc a2b3 c4bd 5334 07be
00000270: 8db8 033d a62a 05bd 1a51 553d 83e5 a63d
00000280: 130e 73bd 2d50 31bc 1a8f e7bd cae6 c33c
00000290: 6720 cf3c 56bb 99bc ac39 ff3d b0b4 8ebd
000002a0: 1bc3 27bd bc22 153e 09bb 3c3d a203 8bbb
000002b0: 1b34 81bd e29d c33d 519d 8ebd 1554 c33c
000002c0: 567e 71bd 2566 18bb 2f8a 063d 9537 333d
000002d0: 2c69 ad3d 1327 90bd b80d aebd d852 0f3e
000002e0: 1030 0f3d dd97 943d 0930 af3d 5823 8b3d
000002f0: 91bf 0a3e 407d 4d3d c207 62bd 314d d83d
00000300: 2b79 8cbd 7637 1b3d eb6c 16bc 4f11 e13d
00000310: e329 1bbc 6f30 91bd 4a55 e03c faa9 73bc
00000320: cfe9 25bd 9da9 c1bc 3bc7 9a3d 5738 a7bd
00000330: 546c b1bd 1066 57bd 930c 993d c833 90bd
00000340: 7c17 b73c f7aa f8bd 3359 79bd 866b b6bd
00000350: 1eaf eb3d 6c3e ac3d 65f7 7c3d bf07 133d
00000360: 28d7 e8bd 31ad b8bd c1c2 a3bd 366d f1bd
00000370: 7263 903c f06d 313d cfbc 8d3d 380d d4bd
00000380: de2d df3d 4c8a 34bc 8df0 c7bd 795b 583d
00000390: 1884 85bd 9b8d d1bd b31b b43d 7dd3 dcbd
000003a0: 1713 93bd bd22 b43d 07aa 01bd 749c 0bbe
000003b0: 5fb1 9a3d f049 8fbd d45a 02bd c11c 08bb
000003c0: f755 c53d b8f4 d33d 3809 bbbd 9722 e0bd
000003d0: 7920 ae3c 14e2 803d a6d5 103d 1f9a d83c
000003e0: 16e3 66bd 9da0 6cbc d9c9 ef3d d355 903d
000003f0: 721b df3d 9e5f 3ebd 524f 8abd de34 89bd

lstm.weight_hh_l1 f4 [256, 64]
-0.08466071 0.080745496 -0.047610298 0.019102788 -0.03979233 -0.056577634 0.13061012 -0.07559937
0.03885993 -0.10105017 0.09894689 0.092974946 0.100885704 -0.11429599 -0.071159735 -0.11714839
0.04416895 -0.082924135 0.11669992 0.109990895 -0.1173489 -0.0025406536 0.029730072 0.096691385
0.09864141 0.107084274 -0.04298842 -0.05991892 0.05046108 -0.012710228 -0.045734033 -0.046279654
-0.025574196 -0.075917594 0.11092413 0.010934256 -0.023850229 -0.0016880936 0.037928335 0.07992047
0.020193791 -0.07636288 0.039050218 -0.03458727 0.12348061 0.1022894 -0.064593874 -0.11378322
-0.11264087 0.07306295 -0.09125513 -0.014392816 0.00040480384 -0.053082913 0.028136939 0.064823136
0.09813421 -0.113936774 0.0014540639 0.10262836 0.08246576 -0.09421126 -0.10325974 -0.07042483
0.013774618 -0.046070073 -0.030749194 -0.060615078 0.032219872 0.12231948 0.097267434 -0.09265447
-0.0348287 0.0396417 -0.111221574 -0.13938808 -0.025984405 -0.06638982 -0.122350045 0.13919467
0.066158 -0.13044116 0.051736284 0.0022381581 -0.025148975 0.08293527 -0.022826834 0.0016663631
0.005082314 0.0027558934 0.069750525 0.03426858 -0.090083115 -0.08643722 -0.04832369 0.104521535
-0.06286053 0.02605924 0.0630328 -0.05243112 0.0007740591 0.064824134 0.11597023 -0.09738256
-0.04502347 -0.14910041 -0.117783435 -0.03746025 0.021642849 0.09462741 0.087241724 0.09182995
-0.10583149 0.06215433 0.013939198 -0.12336926 0.068036534 0.11512146 -0.012500408 0.10830587
-0.04682217 0.07789154 0.047498506 0.0180135 0.02927647 0.028071288 0.019674243 -0.00079926796
-0.050232846 0.057764024 0.008357257 0.09810636 -0.090918556 -0.019855479 0.03496152 -0.060967483
0.005555573 -0.08227975 0.08846855 0.008380048 0.011138059 0.10381714 0.046071578 -0.12584025
-0.030571895 -0.07608818 -0.07517457 -0.052953813 0.037497584 0.07205046 0.061786704 0.063584186
0.008022031 -0.031373557 -0.04954119 0.033736054 -0.09150382 0.09777327 0.0064797937 -0.09158764
0.10523088 -0.031585667 0.056549326 0.00368629 -0.02601615 -0.050778348 -0.13848993 -0.0041690525
-0.09193803 -0.006556145 0.0318972 -0.011585604 0.046902206 -0.019113103 -0.09109906 -0.0856875
0.037860006 0.0037237997 -0.058867455 -0.01905429 0.055286024 -0.09980913 0.051770326 0.09892201
-0.041070912 0.115743116 -0.040445346 -0.083479434 0.051930245 -0.0010898868 -0.088946305 -0.063770145
0.06205017 0.08765864 0.009531883 0.09564394 -0.029236788 -0.116081454 -0.0023754577 -0.031751975
0.056447633 -0.06767317 -0.055726588 -0.047858007 0.045303665 0.112708196 -0.020816041 0.01405702
0.094371654 0.043560892 0.075510934 0.037672058 -0.07489281 0.028804077 -0.0031564573 0.029192302
-0.07453017 -0.04543563 -0.077731416 0.100441076 -0.11828308 -0.039275207 0.06913894 0.030680737
-0.07205159 0.110451944 0.027334658 0.008283517 -0.014264234 -0.032268286 -0.0005175169 0.061962336
0.0035612776 0.092530064 0.014941344 -0.01670708 -0.074888274 0.11732313 -0.097486 0.002713891
0.029462982 0.0073051876 0.031835645 0.13582036 -0.100927256 -0.07337481 0.046816375 -0.07049055
0.045720313 -0.04209656 0.09700468 -0.047008637 -0.04866229 0.12848945 0.02776771 -0.13355212
00000000: 9862 adbd e55d a53d 0403 43bd 737d 9c3c
00000010: 48fd 22bd f3bd 67bd a9be 053e d8d3 9abd
00000020: 972b 1f3d 64f3 cebd aba4 ca3d a669 be3d
00000030: 2a9d ce3d 0414 eabd 32bc 91bd 7feb efbd
00000040: 80ea 343d 21d4 a9bd 5e00 ef3d e842 e13d
00000050: 9f54 f0bd 1881 26bb 7b8c f33c 2206 c63d
00000060: 8204 ca3d 004f db3d a014 30bd 8b6d 75bd
00000070: 47b0 4e3d 8f3e 50bc 9c53 3bbd bc8f 3dbd
00000080: fa80 d1bc af7a 9bbd 312c e33d 9825 333c
00000090: 8e61 c3bc 0643 ddba be5a 1b3d 58ad a33d
000000a0: 736d a53c 2464 9cbd 1ff3 1f3d 62ab 0dbd
000000b0: 67e3 fc3d 1b7d d13d cb49 84bd 2d07 e9bd
000000c0: 42b0 e6bd 07a2 953d f8e3 babd d9cf 6bbc
000000d0: da3b d439 786d 59bd 707f e63c fec1 843d
000000e0: 97fa c83d af57 e9bd 4a96 be3a d12e d23d
000000f0: cfe3 a83d d5f1 c0bd d879 d3bd e53a 90bd
00000100: efae 613c f9b3 3cbd bce5 fbbc 8447 78bd
00000110: fcf8 033d a382 fa3d 2634 c73d a0c1 bdbd
00000120: 8aa8 0ebd 565f 223d 23c8 e3bd c0bb 0ebe
00000130: 3fdd d4bc 63f7 87bd a992 fabd 0c89 0e3e
00000140: d87d 873d 5e92 05be 6de9 533d 10ae 123b
00000150: 3905 cebc f8d9 a93d 57ff babc de69 da3a
00000160: 8a89 a63b 389c 343b 5dd9 8e3d 365d 0c3d
00000170: 7f7d b8bd ff05 b1bd 10ef 45bd 630f d63d
00000180: 06bd 80bd 307a d53c 5717 813d 04c2 56bd
00000190: 3aea 4a3a 84c2 843d cd81 ed3d 8270 c7bd
000001a0: 886a 38bd c7ad 18be 7138 f1bd eb6f 19bd
000001b0: 584c b13c 04cc c13d caab b23d 5711 bc3d
000001c0: 2ebe d8bd 8a95 7e3d 3c61 643c 06a9 fcbd
000001d0: bd56 8b3d cdc4 eb3d 83ce 4cbc 78cf dd3d
000001e0: 9bc8 3fbd 9a85 9f3d cb8d 423d 0c91 933c
000001f0: 35d5 ef3c c2f5 e53c e12b a13c f785 51ba
00000200: f5c0 4dbd f899 6c3d e0ec 083c fdeb c83d
00000210: 8233 babd f5a7 a2bc d033 0f3d 0ab9 79bd
00000220: 860b b63b 4982 a8bd 002f b53d 784c 093c
00000230: 687c 363c 159e d43d 8db5 3c3d 44dc 00be
00000240: e971 fabc 1fd4 9bbd 20f5 99bd 19e6 58bd
00000250: 1197 193d 318f 933d 0e14 7d3d 6d38 823d
00000260: d66e 033c 8f81 00bd b4eb 4abd d12e 0a3d
00000270: 5b66 bbbd 5a3d c83d 7354 d43b 4d92 bbbd
00000280: 4a83 d73d f95f 01bd 44a0 673d af95 713b
00000290: d21f d5bc f5fc 4fbd 4ed0 0dbe 8c9c 88bb
000002a0: 024a bcbd eed4 d6bb a3a6 023d 8cd1 3dbc
000002b0: 871c 403d 1593 9cbc 2592 babd ee7c afbd
000002c0: 1813 1b3d fe0a 743b 001f 71bd be17 9cbc
000002d0: 9973 623d bb68 ccbd 1f0d 543d 9f97 ca3d
000002e0: f939 28bd ba0a ed3d 05aa 25bd 44f7 aabd
000002f0: cfb4 543d 88da 8eba 7b29 b6bd ec99 82bd
00000300: 5228 7e3d 6086 b33d 9d2b 1c3c f8e0 c33d
00000310: fd81 efbc 1dbc edbd 91ad 1bbb 5c0e 02bd
00000320: a235 673d 3b98 8abd 9041 64bd c206 44bd
00000330: 5690 393d 8ed3 e63d 6786 aabc 6a4f 663c
00000340: ed45 c13d e86c 323d 7aa5 9a3d 044e 1a3d
00000350: 6761 99bd 87f6 eb3c 91dc 4ebb b224 ef3c
00000360: 46a3 98bd b61a 3abd a631 9fbd 0db4 cd3d
00000370: 663e f2bd 0adf 20bd b798 8d3d 2b56 fb3c
00000380: c98f 93bd a134 e23d efec df3c 97b7 073c
00000390: 89b4 69bc c02b 04bd f9a9 07ba 38cc 7d3d
000003a0: 5364 693b 6780 bd3d 8acc 743c 49dd 88bc
000003b0: 065f 99bd 1c47 f03d bda6 c7bd 89db 313b
000003c0: 5a5c f13c 5b60 ef3b 1866 023d 7e14 0b3e
000003d0: f3b2 cebd 8845 96bd 87c2 3f3d 595d 90bd
000003e0: 3945 3b3d 716d 2cbd 64aa c63d 218c 40bd
000003f0: 1c52 47bd bd92 033e 1c79 e33c e3c1 08be

lstm.bias_ih_l1 f4 [256]
-0.06653262 -0.06901873 -0.10812496 -0.07344306 0.07255488 0.02599526 0.029189933 -0.06990114
0.13523145 -0.019172039 -0.032590467 -0.0093013 0.10587308 -0.054576706 0.022761013 -0.11151791
0.10572706 -0.09634334 -0.003361702 -0.009650235 0.027854653 0.019504715 0.0780367 0.042752847
-0.044938676 -0.07034749 -0.06268209 0.07062034 -0.053217284 0.09124813 -0.06115886 0.055118512
-0.06444804 -0.11963094 0.080866724 0.109062515 -0.009658712 0.005547179 0.041634306 0.12630428
-0.07417853 -0.0700329 -0.027443709 -0.10605932 0.06361634 -0.06862233 0.049910534 -0.07558346
-0.11119195 0.027411774 0.005652527 -0.00079404225 -0.035836652 0.06320423 -0.012261649 -0.10699445
-0.08490416 0.0016290717 -0.010978652 0.038834978 -0.015323545 -0.0936083 -0.12520495 -0.04521148
0.12024322 -0.0710801 0.07585455 0.12146031 0.08854423 -0.026693026 -0.061971433 0.07468908
0.10686577 0.07234691 -0.02041204 -0.030621395 0.042854376 0.117393196 0.055356428 -0.022335662
0.012248289 0.0047847154 -0.11426912 0.11346344 -0.05415037 0.055440288 0.0013878407 -0.06293003
0.06496433 0.06407399 -0.05072046 -0.02904932 0.12785171 -0.088568375 0.060255796 -0.0012962134
0.030866578 -0.026258541 0.028954232 0.11818355 -0.102058284 -0.013788272 0.06204049 0.075719334
0.10061951 -0.05194274 0.009837091 -0.09858808 0.03639207 0.0811803 0.08620404 -0.098567784
0.0012551387 0.10173959 -0.059759334 -0.058324635 -0.009185611 0.042225156 -0.062474538 0.06873654
0.046340585 -0.0045890305 0.06972927 -0.005147627 0.12077697 -0.03882471 0.07164905 0.033809215
-0.037314627 -0.04894818 0.014945705 0.039953943 0.058351874 -0.06097849 0.09224675 -0.049181003
0.025457485 -0.041179053 0.082075335 -0.012717365 0.050384942 0.0010528907 -0.100220665 -0.03662496
-0.06474617 -0.014485435 -0.0842859 -0.09253956 -0.115012184 0.011928996 0.11051572 -0.08600766
0.030199045 0.06393351 0.09561184 0.02440551 -0.06567519 0.08198374 -0.06986034 0.010531539
0.11081156 0.1136596 -0.088713266 -0.017074984 -0.11326275 0.089302026 0.003885166 0.14555936
0.031128718 0.012542629 -0.021100469 0.1206287 -0.08060456 -0.029933233 -0.067858465 -0.09059604
0.075534366 -0.088552125 -0.08374851 0.05190321 -0.056667414 -0.057724684 -0.055686716 -0.056709006
0.09960621 0.07387424 0.03638365 -0.08863087 -0.010524629 -0.05070663 0.106990285 -0.06871244
-0.11036796 -0.036515094 -0.011774089 0.104047835 -0.082142524 0.05719061 0.116840415 0.06985839
0.06193309 0.07291474 0.0868263 -0.003884045 0.066779055 0.1345367 -0.036156982 0.06866878
0.012780947 -0.07103738 -0.08439708 0.0070891776 -0.030322904 -0.10583172 0.06076923 -0.11288759
-0.122144684 0.097787425 0.073140815 -0.11209895 0.1319646 0.07143955 -0.043124393 -0.071074195
-0.044018406 -0.08547812 -0.087541685 0.09199722 0.08628256 0.06675044 0.06038573 0.09107517
-0.06614559 0.09826994 0.015448074 0.07306495 -0.028693547 -0.01868721 0.019990506 0.04323799
-0.065918155 0.02220373 0.010557536 0.10911043 -0.040977515 0.07634186 -0.10663457 0.037806056
-0.07384626 0.10996259 0.05146296 -0.033239 0.10713277 0.113255195 0.10070531 0.10873323
00000000: 4142 88bd b159 8dbd 9e70 ddbd 5169 96bd
00000010: a797 943d 03f4 d43c ba1f ef3c 5428 8fbd
00000020: 1d7a 0a3e ae0e 9dbc 957d 05bd 7b64 18bc
00000030: fcd3 d83d d38b 5fbd 4e75 ba3c 8163 e4bd
00000040: 6e87 d83d a84f c5bd 0050 5cbb 051c 1ebc
00000050: 712f e43c 5ac8 9f3c b5d1 9f3d 9c1d 2f3d
00000060: 9e11 38bd 5812 90bd 785f 80bd 66a1 903d
00000070: 5efa 59bd 4de0 ba3d b681 7abd f3c3 613d
00000080: 56fd 83bd 1101 f5bd 749d a53d 2b5c df3d
00000090: 933f 1ebc 1cc5 b53b bc88 2a3d e955 013e
000000a0: eaea 97bd 696d 8fbd a1d1 e0bc a135 d9bd
000000b0: 4949 823d dd89 8cbd fd6e 4c3d 80cb 9abd
000000c0: 9bb8 e3bd a88e e03c d538 b93b 4627 50ba
000000d0: 74c9 12bd 3871 813d 15e5 48bc e81f dbbd
000000e0: 3be2 adbd 9386 d53a cedf 33bc 6d11 1f3d
000000f0: 9b0f 7bbc b5b5 bfbd ba35 00be ac2f 39bd
00000100: 1442 f63d 7292 91bd a159 9b3d 2fc0 f83d
00000110: ad56 b53d 55ab dabc c2d5 7dbd 97f6 983d
00000120: 71dc da3d 9e2a 943d 2737 a7bc b8d9 fabc
00000130: 1288 2f3d d86b f03d 6cbd 623d 47f9 b6bc
00000140: 0cad 483c 1ac9 9c3b ee05 eabd 855f e83d
00000150: c7cc 5dbd 5b15 633d 35e8 b53a 76e1 80bd
00000160: 050c 853d 3939 833d 42c0 4fbd d7f8 edbc
00000170: 8feb 023e 5663 b5bd c8ce 763d b4e5 a9ba
00000180: e8db fc3c 271c d7bc 6d31 ed3c 380a f23d
00000190: ef03 d1bd 34e8 61bc 2b1e 7e3d bd12 9b3d
000001a0: 9a11 ce3d e9c1 54bd c02b 213c 8ce8 c9bd
000001b0: da0f 153d db41 a63d be8b b03d e8dd c9bd
000001c0: 7783 a43a d95c d03d 34c6 74bd d0e5 6ebd
000001d0: 3f7f 16bc 49f4 2c3d 4de5 7fbd bec5 8c3d
000001e0: a0cf 3d3d 945f 96bb 38ce 8e3d 6dad a8bb
000001f0: eb59 f73d a906 1fbd bdbc 923d 887b 0a3d
00000200: 39d7 18bd e37d 48bd d5de 743c bfa6 233d
00000210: 6002 6f3d 95c4 79bd ddeb bc3d 0572 49bd
00000220: 378c d03c 5eab 28bd 1d17 a83d 7f5c 50bc
00000230: 7160 4e3d 2601 8a3a 7e40 cdbd 0e04 16bd
00000240: a499 84bd 5154 6dbc 169e acbd 6185 bdbd
00000250: 828b ebbd d671 433c 1156 e23d c924 b0bd
00000260: fd63 f73c 92ef 823d 24d0 c33d 10ee c73c
00000270: b780 86bd 17e7 a73d f012 8fbd 7a8c 2c3c
00000280: 2cf1 e23d 5dc6 e83d 4daf b5bd d6e0 8bbc
00000290: 4df6 e7bd fbe3 b63d 459e 7e3b 830d 153e
000002a0: a701 ff3c 997f 4d3c e4da acbc 2e0c f73d
000002b0: 0114 a5bd 8a36 f5bc 61f9 8abd 6b8a b9bd
000002c0: c3b1 9a3d d15a b5bd 5784 abbd 7698 543d
000002d0: 171c 68bd b870 6cbd c117 64bd b447 68bd
000002e0: 57fe cb3d 614b 973d 0607 153d 1a84 b5bd
000002f0: 7e6f 2cbc c1b1 4fbd b91d db3d 1cb9 8cbd
00000300: 9908 e2bd da90 15bd 1ce8 40bc 0817 d53d
00000310: 573a a8bd b340 6a3d 074a ef3d ea11 8f3d
00000320: 8dad 7d3d 5354 953d fdd1 b13d 768b 7ebb
00000330: 75c3 883d fdc3 093e 5819 14bd 38a2 8c3d
00000340: 2d67 513c 0c7c 91bd 60d8 acbd 554c e83b
00000350: bd67 f8bc 4dbe d8bd 28e9 783d 9c31 e7bd
00000360: fe26 fabd c644 c83d daca 953d 2294 e5bd
00000370: ba21 073e e64e 923d 34a3 30bd 598f 91bd
00000380: a54c 34bd 270f afbd 0e49 b3bd 0a69 bc3d
00000390: e9b4 b03d 74b4 883d 0757 773d 9e85 ba3d
000003a0: 5777 87bd c041 c93d eb19 7d3c 14a3 953d
000003b0: bb0e ebbc eb15 99bc 21c3 a33c 521a 313d
000003c0: 1900 87bd 99e4 b53c 84f9 2c3c 4a75 df3d
000003d0: 0ad8 27bd 1f59 9c3d 3a63 dabd 86da 1a3d
000003e0: b53c 97bd 1134 e13d d3ca 523d 9e25 08bd
000003f0: 6d68 db3d 57f2 e73d 963e ce3d 87af de3d
